…
2022-09-01 10:36:05 | INFO | fairseq.data.data_utils | loaded 25014 examples from: ../data/mscoco17/en-de/inverseKD/pre/valid.en-de.de
2022-09-01 10:36:11 | INFO | fairseq.data.data_utils | loaded 25014 examples from: ../data/mscoco17/en-de/inverseKD/pre/valid.image.en-de
2022-09-01 10:36:11 | INFO | fairseq.tasks.translation_immt | ../data/mscoco17/en-de/inverseKD/pre valid en-de 25014 examples
Built pre-trained CNN resnet50 in 3 seconds.
Built pre-trained CNN resnet50 in 2 seconds.
save_dir:../checkpoints/mscoco17/en-de/inverseKD_res_m_l2 2022-09-01 10:36:18 | INFO | fairseq_cli.train | TransformerIMMTModel(
  (encoder): TransformerIMMTEncoder(
    (embed_tokens): Embedding(13448, 128, padding_idx=1)
    (embed_positions): SinusoidalPositionalEmbedding()
    (layers): ModuleList(
      (0): TransformerIMMTEncoderLayer(
        (self_attn): MultiheadIMMTAttention(
          (k_proj): Linear(in_features=128, out_features=128, bias=True)
          (v_proj): Linear(in_features=128, out_features=128, bias=True)
          (q_proj): Linear(in_features=128, out_features=128, bias=True)
          (out_proj): Linear(in_features=128, out_features=128, bias=True)
        )
        (self_attn_layer_norm): LayerNorm((128,), eps=1e-05, elementwise_affine=True)
        (fc1): Linear(in_features=128, out_features=256, bias=True)
        (fc2): Linear(in_features=256, out_features=128, bias=True)
        (final_layer_norm): LayerNorm((128,), eps=1e-05, elementwise_affine=True)
      )
      (1): TransformerIMMTEncoderLayer(
        (self_attn): MultiheadIMMTAttention(
          (k_proj): Linear(in_features=128, out_features=128, bias=True)
          (v_proj): Linear(in_features=128, out_features=128, bias=True)
          (q_proj): Linear(in_features=128, out_features=128, bias=True)
          (out_proj): Linear(in_features=128, out_features=128, bias=True)
        )
        (self_attn_layer_norm): LayerNorm((128,), eps=1e-05, elementwise_affine=True)
        (fc1): Linear(in_features=128, out_features=256, bias=True)
        (fc2): Linear(in_features=256, out_features=128, bias=True)
        (final_layer_norm): LayerNorm((128,), eps=1e-05, elementwise_affine=True)
      )
      (2): TransformerIMMTEncoderLayer(
        (self_attn): MultiheadIMMTAttention(
          (k_proj): Linear(in_features=128, out_features=128, bias=True)
          (v_proj): Linear(in_features=128, out_features=128, bias=True)
          (q_proj): Linear(in_features=128, out_features=128, bias=True)
          (out_proj): Linear(in_features=128, out_features=128, bias=True)
        )
        (self_attn_layer_norm): LayerNorm((128,), eps=1e-05, elementwise_affine=True)
        (fc1): Linear(in_features=128, out_features=256, bias=True)
        (fc2): Linear(in_features=256, out_features=128, bias=True)
        (final_layer_norm): LayerNorm((128,), eps=1e-05, elementwise_affine=True)
      )
      (3): TransformerIMMTEncoderLayer(
        (self_attn): MultiheadIMMTAttention(
          (k_proj): Linear(in_features=128, out_features=128, bias=True)
          (v_proj): Linear(in_features=128, out_features=128, bias=True)
          (q_proj): Linear(in_features=128, out_features=128, bias=True)
          (out_proj): Linear(in_features=128, out_features=128, bias=True)
        )
        (self_attn_layer_norm): LayerNorm((128,), eps=1e-05, elementwise_affine=True)
        (fc1): Linear(in_features=128, out_features=256, bias=True)
        (fc2): Linear(in_features=256, out_features=128, bias=True)
        (final_layer_norm): LayerNorm((128,), eps=1e-05, elementwise_affine=True)
      )
    )
    (layer_norm): LayerNorm((128,), eps=1e-05, elementwise_affine=True)
    (encoder_image): ImageLocalFeaturesProjector(
      (layers): Sequential(
        (0): View()
        (1): Linear(in_features=2048, out_features=128, bias=True)
        (2): Dropout(p=0.3, inplace=False)
      )
    )
  )
  (decoder): TransformerIMMTDecoder(
    (embed_tokens): Embedding(13448, 128, padding_idx=1)
    (embed_positions): SinusoidalPositionalEmbedding()
    (layers): ModuleList(
      (0): TransformerIMMTDecoderLayer(
        (self_attn): MultiheadAttention(
          (k_proj): Linear(in_features=128, out_features=128, bias=True)
          (v_proj): Linear(in_features=128, out_features=128, bias=True)
          (q_proj): Linear(in_features=128, out_features=128, bias=True)
          (out_proj): Linear(in_features=128, out_features=128, bias=True)
        )
        (self_attn_layer_norm): LayerNorm((128,), eps=1e-05, elementwise_affine=True)
        (encoder_attn): MultiheadIMMTAttention(
          (k_proj): Linear(in_features=128, out_features=128, bias=True)
          (v_proj): Linear(in_features=128, out_features=128, bias=True)
          (q_proj): Linear(in_features=128, out_features=128, bias=True)
          (out_proj): Linear(in_features=128, out_features=128, bias=True)
        )
        (encoder_attn_layer_norm): LayerNorm((128,), eps=1e-05, elementwise_affine=True)
        (fc1): Linear(in_features=128, out_features=256, bias=True)
        (fc2): Linear(in_features=256, out_features=128, bias=True)
        (final_layer_norm): LayerNorm((128,), eps=1e-05, elementwise_affine=True)
      )
      (1): TransformerIMMTDecoderLayer(
        (self_attn): MultiheadAttention(
          (k_proj): Linear(in_features=128, out_features=128, bias=True)
          (v_proj): Linear(in_features=128, out_features=128, bias=True)
          (q_proj): Linear(in_features=128, out_features=128, bias=True)
          (out_proj): Linear(in_features=128, out_features=128, bias=True)
        )
        (self_attn_layer_norm): LayerNorm((128,), eps=1e-05, elementwise_affine=True)
        (encoder_attn): MultiheadIMMTAttention(
          (k_proj): Linear(in_features=128, out_features=128, bias=True)
          (v_proj): Linear(in_features=128, out_features=128, bias=True)
          (q_proj): Linear(in_features=128, out_features=128, bias=True)
          (out_proj): Linear(in_features=128, out_features=128, bias=True)
        )
        (encoder_attn_layer_norm): LayerNorm((128,), eps=1e-05, elementwise_affine=True)
        (fc1): Linear(in_features=128, out_features=256, bias=True)
        (fc2): Linear(in_features=256, out_features=128, bias=True)
        (final_layer_norm): LayerNorm((128,), eps=1e-05, elementwise_affine=True)
      )
      (2): TransformerIMMTDecoderLayer(
        (self_attn): MultiheadAttention(
          (k_proj): Linear(in_features=128, out_features=128, bias=True)
          (v_proj): Linear(in_features=128, out_features=128, bias=True)
          (q_proj): Linear(in_features=128, out_features=128, bias=True)
          (out_proj): Linear(in_features=128, out_features=128, bias=True)
        )
        (self_attn_layer_norm): LayerNorm((128,), eps=1e-05, elementwise_affine=True)
        (encoder_attn): MultiheadIMMTAttention(
          (k_proj): Linear(in_features=128, out_features=128, bias=True)
          (v_proj): Linear(in_features=128, out_features=128, bias=True)
          (q_proj): Linear(in_features=128, out_features=128, bias=True)
          (out_proj): Linear(in_features=128, out_features=128, bias=True)
        )
        (encoder_attn_layer_norm): LayerNorm((128,), eps=1e-05, elementwise_affine=True)
        (fc1): Linear(in_features=128, out_features=256, bias=True)
        (fc2): Linear(in_features=256, out_features=128, bias=True)
        (final_layer_norm): LayerNorm((128,), eps=1e-05, elementwise_affine=True)
      )
      (3): TransformerIMMTDecoderLayer(
        (self_attn): MultiheadAttention(
          (k_proj): Linear(in_features=128, out_features=128, bias=True)
          (v_proj): Linear(in_features=128, out_features=128, bias=True)
          (q_proj): Linear(in_features=128, out_features=128, bias=True)
          (out_proj): Linear(in_features=128, out_features=128, bias=True)
        )
        (self_attn_layer_norm): LayerNorm((128,), eps=1e-05, elementwise_affine=True)
        (encoder_attn): MultiheadIMMTAttention(
          (k_proj): Linear(in_features=128, out_features=128, bias=True)
          (v_proj): Linear(in_features=128, out_features=128, bias=True)
          (q_proj): Linear(in_features=128, out_features=128, bias=True)
          (out_proj): Linear(in_features=128, out_features=128, bias=True)
        )
        (encoder_attn_layer_norm): LayerNorm((128,), eps=1e-05, elementwise_affine=True)
        (fc1): Linear(in_features=128, out_features=256, bias=True)
        (fc2): Linear(in_features=256, out_features=128, bias=True)
        (final_layer_norm): LayerNorm((128,), eps=1e-05, elementwise_affine=True)
      )
    )
    (layer_norm): LayerNorm((128,), eps=1e-05, elementwise_affine=True)
  )
)
2022-09-01 10:36:18 | INFO | fairseq_cli.train | model transformer_immt_tiny, criterion LabelSmoothedImmtCrossEntropyCriterion
2022-09-01 10:36:18 | INFO | fairseq_cli.train | num. model params: 3309184 (num. trained: 3309184)
2022-09-01 10:36:18 | INFO | fairseq_cli.train | training on 2 GPUs
2022-09-01 10:36:18 | INFO | fairseq_cli.train | max tokens per GPU = 1024 and max sentences per GPU = None
…
