…
2021-11-01 23:41:07 | INFO | fairseq.data.data_utils | loaded 1014 examples from: ../data/multi30k/en-fr/inverseKD/valid.en-fr.en
2021-11-01 23:41:07 | INFO | fairseq.data.data_utils | loaded 1014 examples from: ../data/multi30k/en-fr/inverseKD/valid.en-fr.fr
2021-11-01 23:41:08 | INFO | fairseq.data.data_utils | loaded 1014 examples from: ../data/multi30k/en-fr/inverseKD/valid.image.en-fr
2021-11-01 23:41:08 | INFO | fairseq.tasks.translation_immt | ../data/multi30k/en-fr/inverseKD valid en-fr 1014 examples
Built pre-trained CNN resnet50 in 0 seconds.
Built pre-trained CNN resnet50 in 1 seconds.
2021-11-01 23:41:14 | INFO | fairseq_cli.train | TransformerIMMTModel(
  (encoder): TransformerIMMTEncoder(
    (embed_tokens): Embedding(9544, 128, padding_idx=1)
    (embed_positions): SinusoidalPositionalEmbedding()
    (layers): ModuleList(
      (0): TransformerIMMTEncoderLayer(
        (self_attn): MultiheadIMMTAttention(
          (k_proj): Linear(in_features=128, out_features=128, bias=True)
          (v_proj): Linear(in_features=128, out_features=128, bias=True)
          (q_proj): Linear(in_features=128, out_features=128, bias=True)
          (out_proj): Linear(in_features=128, out_features=128, bias=True)
        )
        (self_attn_layer_norm): LayerNorm((128,), eps=1e-05, elementwise_affine=True)
        (fc1): Linear(in_features=128, out_features=256, bias=True)
        (fc2): Linear(in_features=256, out_features=128, bias=True)
        (final_layer_norm): LayerNorm((128,), eps=1e-05, elementwise_affine=True)
      )
      (1): TransformerIMMTEncoderLayer(
        (self_attn): MultiheadIMMTAttention(
          (k_proj): Linear(in_features=128, out_features=128, bias=True)
          (v_proj): Linear(in_features=128, out_features=128, bias=True)
          (q_proj): Linear(in_features=128, out_features=128, bias=True)
          (out_proj): Linear(in_features=128, out_features=128, bias=True)
        )
        (self_attn_layer_norm): LayerNorm((128,), eps=1e-05, elementwise_affine=True)
        (fc1): Linear(in_features=128, out_features=256, bias=True)
        (fc2): Linear(in_features=256, out_features=128, bias=True)
        (final_layer_norm): LayerNorm((128,), eps=1e-05, elementwise_affine=True)
      )
      (2): TransformerIMMTEncoderLayer(
        (self_attn): MultiheadIMMTAttention(
          (k_proj): Linear(in_features=128, out_features=128, bias=True)
          (v_proj): Linear(in_features=128, out_features=128, bias=True)
          (q_proj): Linear(in_features=128, out_features=128, bias=True)
          (out_proj): Linear(in_features=128, out_features=128, bias=True)
        )
        (self_attn_layer_norm): LayerNorm((128,), eps=1e-05, elementwise_affine=True)
        (fc1): Linear(in_features=128, out_features=256, bias=True)
        (fc2): Linear(in_features=256, out_features=128, bias=True)
        (final_layer_norm): LayerNorm((128,), eps=1e-05, elementwise_affine=True)
      )
      (3): TransformerIMMTEncoderLayer(
        (self_attn): MultiheadIMMTAttention(
          (k_proj): Linear(in_features=128, out_features=128, bias=True)
          (v_proj): Linear(in_features=128, out_features=128, bias=True)
          (q_proj): Linear(in_features=128, out_features=128, bias=True)
          (out_proj): Linear(in_features=128, out_features=128, bias=True)
        )
        (self_attn_layer_norm): LayerNorm((128,), eps=1e-05, elementwise_affine=True)
        (fc1): Linear(in_features=128, out_features=256, bias=True)
        (fc2): Linear(in_features=256, out_features=128, bias=True)
        (final_layer_norm): LayerNorm((128,), eps=1e-05, elementwise_affine=True)
      )
    )
    (layer_norm): LayerNorm((128,), eps=1e-05, elementwise_affine=True)
    (encoder_image): ImageLocalFeaturesProjector(
      (layers): Sequential(
        (0): View()
        (1): Linear(in_features=2048, out_features=128, bias=True)
        (2): Dropout(p=0.3, inplace=False)
      )
    )
  )
  (decoder): TransformerIMMTDecoder(
    (embed_tokens): Embedding(9544, 128, padding_idx=1)
    (embed_positions): SinusoidalPositionalEmbedding()
    (layers): ModuleList(
      (0): TransformerIMMTDecoderLayer(
        (self_attn): MultiheadAttention(
          (k_proj): Linear(in_features=128, out_features=128, bias=True)
          (v_proj): Linear(in_features=128, out_features=128, bias=True)
          (q_proj): Linear(in_features=128, out_features=128, bias=True)
          (out_proj): Linear(in_features=128, out_features=128, bias=True)
        )
        (self_attn_layer_norm): LayerNorm((128,), eps=1e-05, elementwise_affine=True)
        (encoder_attn): MultiheadIMMTAttention(
          (k_proj): Linear(in_features=128, out_features=128, bias=True)
          (v_proj): Linear(in_features=128, out_features=128, bias=True)
          (q_proj): Linear(in_features=128, out_features=128, bias=True)
          (out_proj): Linear(in_features=128, out_features=128, bias=True)
        )
        (encoder_attn_layer_norm): LayerNorm((128,), eps=1e-05, elementwise_affine=True)
        (fc1): Linear(in_features=128, out_features=256, bias=True)
        (fc2): Linear(in_features=256, out_features=128, bias=True)
        (final_layer_norm): LayerNorm((128,), eps=1e-05, elementwise_affine=True)
      )
      (1): TransformerIMMTDecoderLayer(
        (self_attn): MultiheadAttention(
          (k_proj): Linear(in_features=128, out_features=128, bias=True)
          (v_proj): Linear(in_features=128, out_features=128, bias=True)
          (q_proj): Linear(in_features=128, out_features=128, bias=True)
          (out_proj): Linear(in_features=128, out_features=128, bias=True)
        )
        (self_attn_layer_norm): LayerNorm((128,), eps=1e-05, elementwise_affine=True)
        (encoder_attn): MultiheadIMMTAttention(
          (k_proj): Linear(in_features=128, out_features=128, bias=True)
          (v_proj): Linear(in_features=128, out_features=128, bias=True)
          (q_proj): Linear(in_features=128, out_features=128, bias=True)
          (out_proj): Linear(in_features=128, out_features=128, bias=True)
        )
        (encoder_attn_layer_norm): LayerNorm((128,), eps=1e-05, elementwise_affine=True)
        (fc1): Linear(in_features=128, out_features=256, bias=True)
        (fc2): Linear(in_features=256, out_features=128, bias=True)
        (final_layer_norm): LayerNorm((128,), eps=1e-05, elementwise_affine=True)
      )
      (2): TransformerIMMTDecoderLayer(
        (self_attn): MultiheadAttention(
          (k_proj): Linear(in_features=128, out_features=128, bias=True)
          (v_proj): Linear(in_features=128, out_features=128, bias=True)
          (q_proj): Linear(in_features=128, out_features=128, bias=True)
          (out_proj): Linear(in_features=128, out_features=128, bias=True)
        )
        (self_attn_layer_norm): LayerNorm((128,), eps=1e-05, elementwise_affine=True)
        (encoder_attn): MultiheadIMMTAttention(
          (k_proj): Linear(in_features=128, out_features=128, bias=True)
          (v_proj): Linear(in_features=128, out_features=128, bias=True)
          (q_proj): Linear(in_features=128, out_features=128, bias=True)
          (out_proj): Linear(in_features=128, out_features=128, bias=True)
        )
        (encoder_attn_layer_norm): LayerNorm((128,), eps=1e-05, elementwise_affine=True)
        (fc1): Linear(in_features=128, out_features=256, bias=True)
        (fc2): Linear(in_features=256, out_features=128, bias=True)
        (final_layer_norm): LayerNorm((128,), eps=1e-05, elementwise_affine=True)
      )
      (3): TransformerIMMTDecoderLayer(
        (self_attn): MultiheadAttention(
          (k_proj): Linear(in_features=128, out_features=128, bias=True)
          (v_proj): Linear(in_features=128, out_features=128, bias=True)
          (q_proj): Linear(in_features=128, out_features=128, bias=True)
          (out_proj): Linear(in_features=128, out_features=128, bias=True)
        )
        (self_attn_layer_norm): LayerNorm((128,), eps=1e-05, elementwise_affine=True)
        (encoder_attn): MultiheadIMMTAttention(
          (k_proj): Linear(in_features=128, out_features=128, bias=True)
          (v_proj): Linear(in_features=128, out_features=128, bias=True)
          (q_proj): Linear(in_features=128, out_features=128, bias=True)
          (out_proj): Linear(in_features=128, out_features=128, bias=True)
        )
        (encoder_attn_layer_norm): LayerNorm((128,), eps=1e-05, elementwise_affine=True)
        (fc1): Linear(in_features=128, out_features=256, bias=True)
        (fc2): Linear(in_features=256, out_features=128, bias=True)
        (final_layer_norm): LayerNorm((128,), eps=1e-05, elementwise_affine=True)
      )
    )
    (layer_norm): LayerNorm((128,), eps=1e-05, elementwise_affine=True)
  )
)
2021-11-01 23:41:14 | INFO | fairseq_cli.train | model transformer_immt_tiny, criterion LabelSmoothedImmtCrossEntropyCriterion
2021-11-01 23:41:14 | INFO | fairseq_cli.train | num. model params: 2809472 (num. trained: 2809472)
2021-11-01 23:41:14 | INFO | fairseq_cli.train | training on 1 GPUs
2021-11-01 23:41:14 | INFO | fairseq_cli.train | max tokens per GPU = 1024 and max sentences per GPU = None
…
