…
2021-11-02 10:58:59 | INFO | fairseq.data.data_utils | loaded 1014 examples from: ../data/multi30k/en-fr/mmt/valid.en-fr.en
2021-11-02 10:58:59 | INFO | fairseq.data.data_utils | loaded 1014 examples from: ../data/multi30k/en-fr/mmt/valid.en-fr.fr
2021-11-02 10:59:00 | INFO | fairseq.data.data_utils | loaded 1014 examples from: ../data/multi30k/en-fr/mmt/valid.image.en-fr
2021-11-02 10:59:00 | INFO | fairseq.tasks.translation_immt | ../data/multi30k/en-fr/mmt valid en-fr 1014 examples
Built pre-trained CNN resnet50 in 0 seconds.
2021-11-02 10:59:04 | INFO | fairseq_cli.train | TransformerImaginetModel(
  (encoder): TransformerImaginetEncoder(
    (embed_tokens): Embedding(9544, 128, padding_idx=1)
    (embed_positions): SinusoidalPositionalEmbedding()
    (layers): ModuleList(
      (0): TransformerEncoderLayer(
        (self_attn): MultiheadAttention(
          (k_proj): Linear(in_features=128, out_features=128, bias=True)
          (v_proj): Linear(in_features=128, out_features=128, bias=True)
          (q_proj): Linear(in_features=128, out_features=128, bias=True)
          (out_proj): Linear(in_features=128, out_features=128, bias=True)
        )
        (self_attn_layer_norm): LayerNorm((128,), eps=1e-05, elementwise_affine=True)
        (fc1): Linear(in_features=128, out_features=256, bias=True)
        (fc2): Linear(in_features=256, out_features=128, bias=True)
        (final_layer_norm): LayerNorm((128,), eps=1e-05, elementwise_affine=True)
      )
      (1): TransformerEncoderLayer(
        (self_attn): MultiheadAttention(
          (k_proj): Linear(in_features=128, out_features=128, bias=True)
          (v_proj): Linear(in_features=128, out_features=128, bias=True)
          (q_proj): Linear(in_features=128, out_features=128, bias=True)
          (out_proj): Linear(in_features=128, out_features=128, bias=True)
        )
        (self_attn_layer_norm): LayerNorm((128,), eps=1e-05, elementwise_affine=True)
        (fc1): Linear(in_features=128, out_features=256, bias=True)
        (fc2): Linear(in_features=256, out_features=128, bias=True)
        (final_layer_norm): LayerNorm((128,), eps=1e-05, elementwise_affine=True)
      )
      (2): TransformerEncoderLayer(
        (self_attn): MultiheadAttention(
          (k_proj): Linear(in_features=128, out_features=128, bias=True)
          (v_proj): Linear(in_features=128, out_features=128, bias=True)
          (q_proj): Linear(in_features=128, out_features=128, bias=True)
          (out_proj): Linear(in_features=128, out_features=128, bias=True)
        )
        (self_attn_layer_norm): LayerNorm((128,), eps=1e-05, elementwise_affine=True)
        (fc1): Linear(in_features=128, out_features=256, bias=True)
        (fc2): Linear(in_features=256, out_features=128, bias=True)
        (final_layer_norm): LayerNorm((128,), eps=1e-05, elementwise_affine=True)
      )
      (3): TransformerEncoderLayer(
        (self_attn): MultiheadAttention(
          (k_proj): Linear(in_features=128, out_features=128, bias=True)
          (v_proj): Linear(in_features=128, out_features=128, bias=True)
          (q_proj): Linear(in_features=128, out_features=128, bias=True)
          (out_proj): Linear(in_features=128, out_features=128, bias=True)
        )
        (self_attn_layer_norm): LayerNorm((128,), eps=1e-05, elementwise_affine=True)
        (fc1): Linear(in_features=128, out_features=256, bias=True)
        (fc2): Linear(in_features=256, out_features=128, bias=True)
        (final_layer_norm): LayerNorm((128,), eps=1e-05, elementwise_affine=True)
      )
    )
    (layer_norm): LayerNorm((128,), eps=1e-05, elementwise_affine=True)
    (encoder_image): ImageGlobalFeaturesProjector(
      (layers): Sequential(
        (0): Linear(in_features=128, out_features=2048, bias=True)
      )
    )
  )
  (decoder): TransformerDecoder(
    (embed_tokens): Embedding(9544, 128, padding_idx=1)
    (embed_positions): SinusoidalPositionalEmbedding()
    (layers): ModuleList(
      (0): TransformerDecoderLayer(
        (self_attn): MultiheadAttention(
          (k_proj): Linear(in_features=128, out_features=128, bias=True)
          (v_proj): Linear(in_features=128, out_features=128, bias=True)
          (q_proj): Linear(in_features=128, out_features=128, bias=True)
          (out_proj): Linear(in_features=128, out_features=128, bias=True)
        )
        (self_attn_layer_norm): LayerNorm((128,), eps=1e-05, elementwise_affine=True)
        (encoder_attn): MultiheadAttention(
          (k_proj): Linear(in_features=128, out_features=128, bias=True)
          (v_proj): Linear(in_features=128, out_features=128, bias=True)
          (q_proj): Linear(in_features=128, out_features=128, bias=True)
          (out_proj): Linear(in_features=128, out_features=128, bias=True)
        )
        (encoder_attn_layer_norm): LayerNorm((128,), eps=1e-05, elementwise_affine=True)
        (fc1): Linear(in_features=128, out_features=256, bias=True)
        (fc2): Linear(in_features=256, out_features=128, bias=True)
        (final_layer_norm): LayerNorm((128,), eps=1e-05, elementwise_affine=True)
      )
      (1): TransformerDecoderLayer(
        (self_attn): MultiheadAttention(
          (k_proj): Linear(in_features=128, out_features=128, bias=True)
          (v_proj): Linear(in_features=128, out_features=128, bias=True)
          (q_proj): Linear(in_features=128, out_features=128, bias=True)
          (out_proj): Linear(in_features=128, out_features=128, bias=True)
        )
        (self_attn_layer_norm): LayerNorm((128,), eps=1e-05, elementwise_affine=True)
        (encoder_attn): MultiheadAttention(
          (k_proj): Linear(in_features=128, out_features=128, bias=True)
          (v_proj): Linear(in_features=128, out_features=128, bias=True)
          (q_proj): Linear(in_features=128, out_features=128, bias=True)
          (out_proj): Linear(in_features=128, out_features=128, bias=True)
        )
        (encoder_attn_layer_norm): LayerNorm((128,), eps=1e-05, elementwise_affine=True)
        (fc1): Linear(in_features=128, out_features=256, bias=True)
        (fc2): Linear(in_features=256, out_features=128, bias=True)
        (final_layer_norm): LayerNorm((128,), eps=1e-05, elementwise_affine=True)
      )
      (2): TransformerDecoderLayer(
        (self_attn): MultiheadAttention(
          (k_proj): Linear(in_features=128, out_features=128, bias=True)
          (v_proj): Linear(in_features=128, out_features=128, bias=True)
          (q_proj): Linear(in_features=128, out_features=128, bias=True)
          (out_proj): Linear(in_features=128, out_features=128, bias=True)
        )
        (self_attn_layer_norm): LayerNorm((128,), eps=1e-05, elementwise_affine=True)
        (encoder_attn): MultiheadAttention(
          (k_proj): Linear(in_features=128, out_features=128, bias=True)
          (v_proj): Linear(in_features=128, out_features=128, bias=True)
          (q_proj): Linear(in_features=128, out_features=128, bias=True)
          (out_proj): Linear(in_features=128, out_features=128, bias=True)
        )
        (encoder_attn_layer_norm): LayerNorm((128,), eps=1e-05, elementwise_affine=True)
        (fc1): Linear(in_features=128, out_features=256, bias=True)
        (fc2): Linear(in_features=256, out_features=128, bias=True)
        (final_layer_norm): LayerNorm((128,), eps=1e-05, elementwise_affine=True)
      )
      (3): TransformerDecoderLayer(
        (self_attn): MultiheadAttention(
          (k_proj): Linear(in_features=128, out_features=128, bias=True)
          (v_proj): Linear(in_features=128, out_features=128, bias=True)
          (q_proj): Linear(in_features=128, out_features=128, bias=True)
          (out_proj): Linear(in_features=128, out_features=128, bias=True)
        )
        (self_attn_layer_norm): LayerNorm((128,), eps=1e-05, elementwise_affine=True)
        (encoder_attn): MultiheadAttention(
          (k_proj): Linear(in_features=128, out_features=128, bias=True)
          (v_proj): Linear(in_features=128, out_features=128, bias=True)
          (q_proj): Linear(in_features=128, out_features=128, bias=True)
          (out_proj): Linear(in_features=128, out_features=128, bias=True)
        )
        (encoder_attn_layer_norm): LayerNorm((128,), eps=1e-05, elementwise_affine=True)
        (fc1): Linear(in_features=128, out_features=256, bias=True)
        (fc2): Linear(in_features=256, out_features=128, bias=True)
        (final_layer_norm): LayerNorm((128,), eps=1e-05, elementwise_affine=True)
      )
    )
    (layer_norm): LayerNorm((128,), eps=1e-05, elementwise_affine=True)
  )
)
2021-11-02 10:59:04 | INFO | fairseq_cli.train | model transformer_imaginet_tiny, criterion LabelSmoothedImaginetCrossEntropyCriterion
2021-11-02 10:59:04 | INFO | fairseq_cli.train | num. model params: 2811392 (num. trained: 2811392)
2021-11-02 10:59:04 | INFO | fairseq_cli.train | training on 1 GPUs
2021-11-02 10:59:04 | INFO | fairseq_cli.train | max tokens per GPU = 1024 and max sentences per GPU = None
…
